hadouken_model_03.tflite (tflite, 29096 bytes, 6 tensors)

sequential_1/conv2d_1/BiasAdd/ReadVariableOp f4 [30]
0	0xbe44176a	-0.19149557
1	0x3bd35dd6	0.006450395
2	0xbe2c3a8f	-0.16819213
3	0xbebf6bee	-0.3738703
4	0x3d77c2c3	0.060488474
5	0xbea508ef	-0.32233378
6	0x3f01a90b	0.50648564
7	0xbe908bf0	-0.28231764
8	0xbe3a7f28	-0.18212569
9	0xbe6d03fa	-0.23146048
10	0x3eb865bd	0.3601512
11	0x3c80e9b0	0.01573643
12	0xbe74bb28	-0.2389952
13	0xbd29b746	-0.04143455
14	0xbe348f93	-0.17632894
15	0xbe3150e6	-0.17316017
16	0x3e970a55	0.2950007
17	0x3e90f029	0.28308228
18	0xbde0d705	-0.10978512
19	0x3e9dd5da	0.30827218
20	0x3e7a4887	0.2444173
21	0xb90f8520	-0.00013687136
22	0x3ddc7217	0.107639484
23	0xbeab9614	-0.33512938
24	0xbbd69891	-0.006548949
25	0xbf235d20	-0.6381397
26	0xbdb1f9cb	-0.08690222
27	0xbe6fb2f3	-0.23408107
28	0x3f30f9be	0.69131076
29	0x3cef84b1	0.029238077

sequential_1/dense_2/BiasAdd/ReadVariableOp f4 [32]
0	0x3ebbad1b	0.36655506
1	0x3d0aa87d	0.03385209
2	0xbcf82221	-0.030289711
3	0xbdcec167	-0.10095482
4	0xbe3a8d4c	-0.18217963
5	0x3e132c21	0.14372303
6	0xbda6e9ed	-0.081500866
7	0xbd88148a	-0.066445425
8	0xbd93e993	-0.07222285
9	0xbd96d5e8	-0.07365018
10	0xbe4dc1ad	-0.20093413
11	0xbd21f251	-0.03953773
12	0xbcf3af0a	-0.029746551
13	0x3efba73c	0.49151027
14	0xbd57d6e0	-0.052695155
15	0x3d44eda8	0.04807821
16	0x3f379e3f	0.7172584
17	0xbd78670f	-0.06064516
18	0xbdfabcd1	-0.12243045
19	0xbd2225b3	-0.039586734
20	0x3f42f6dd	0.76157933
21	0x3ea7e508	0.32791924
22	0x3c23fc15	0.0100088315
23	0xbe2345cf	-0.15944599
24	0x3cba7646	0.022761475
25	0xbda05c15	-0.07830063
26	0xbc28a7e7	-0.010293937
27	0xbe13e854	-0.14444095
28	0x3f072abc	0.5279958
29	0xbda79a17	-0.08183687
30	0xbd8c27c2	-0.06843521
31	0x3f135fcc	0.5756805

sequential_1/dense_3/BiasAdd/ReadVariableOp f4 [3]
0	0xbed75bdc	-0.4206227
1	0x3f235ba5	0.63811713
2	0xbf1347cf	-0.57531446

sequential_1/dense_2/MatMul f4 [32, 180]
0	0xbc3db584	-0.011578921
1	0x3e381298	0.17975843
2	0x3d9d4861	0.07679821
3	0xbdabe376	-0.08392994
4	0xbd7b11f8	-0.061296433
5	0xbe856a38	-0.260576
6	0x3e136677	0.14394556
7	0xbe1f8abd	-0.15580268
8	0xbdf90746	-0.121595904
9	0xbe52109d	-0.2051415
10	0xbdc7ec5c	-0.09761879
11	0x3e3b1d5f	0.18272923
12	0xbc468bf0	-0.012118325
13	0xbd26ffc1	-0.04077125
14	0xbe43d76b	-0.19125144
15	0xbe0b8511	-0.1362498
16	0xbe04d615	-0.12972291
17	0x3c8dd318	0.017312571
18	0xbe964f64	-0.29357445
19	0x3e729a44	0.2369166
20	0xb91a3ba6	-0.00014708805
21	0xbc21232b	-0.009835045
22	0x3e08655f	0.1331992
23	0x3dc1f741	0.09470988
24	0x3d844f63	0.06460454
25	0xbd645d7d	-0.05575322
26	0xbe384c36	-0.17997822
27	0xbd037bf3	-0.03210063
28	0x3ca81751	0.02051893
29	0xbea471c6	-0.32118052
30	0xbe9c5698	-0.30534816
31	0x3e04f901	0.12985612
32	0x3e057dd6	0.13036284
33	0xbe5ab6c7	-0.21358787
34	0x3e311986	0.17294893
35	0x3e3d78ed	0.18503161
36	0x3de83a28	0.113392174
37	0xbdc99fd7	-0.0984494
38	0x3d00519f	0.03132784
39	0xbe00851a	-0.12550774
40	0x3da0e0f5	0.07855407
41	0xbe274a56	-0.1633695
42	0xbde2df22	-0.110777155
43	0xbe068e05	-0.13140114
44	0xbe594147	-0.21216308
45	0x3d645060	0.055740714
46	0xbec343b3	-0.38137588
47	0xbc0fae9f	-0.00876966
48	0xbee564ce	-0.4480347
49	0x3db8bd81	0.0902052
50	0x3e2fc8b3	0.17166404
51	0x3e336823	0.17520194
52	0x3e34bea0	0.17650843
53	0xbe1896f0	-0.14901328
54	0xbd875902	-0.06608774
55	0xbd7351fe	-0.059404366
56	0x3bb67111	0.005567678
57	0x3e506388	0.20350468
58	0xbc40e729	-0.011773863
59	0xbd9ff7c5	-0.0781093
60	0xbd828e7c	-0.06374833
61	0xbd2e0354	-0.042483643
62	0xbc426cd4	-0.011866767
63	0xbe71e84e	-0.23623773
64	0x3da4c5e5	0.08045558
65	0xbdc164c7	-0.0944305
66	0x3d39524c	0.0452445
67	0xbe066cf4	-0.131275
68	0xbe27d902	-0.16391376
69	0xbcfba72a	-0.030719358
70	0x3d70fca6	0.058834694
71	0xbdb4266b	-0.0879639
72	0x3dbdb5dc	0.092632025
73	0x3dc979d5	0.09837691
74	0x3cd52746	0.026019704
75	0xbe82b411	-0.25528005
76	0xbddbc56b	-0.10731014
77	0x3e4c7412	0.19966152
78	0x3c58570c	0.013204347
79	0x3c925313	0.017861878
80	0xbd68600f	-0.056732234
81	0x3dc9e177	0.09857457
82	0x3e1c9632	0.1529167
83	0xbda973e9	-0.08274061
84	0xbb2eebf2	-0.0026690927
85	0x3b5e8f10	0.0033959784
86	0x3dd88d6d	0.1057385
87	0xbcd541f7	-0.026032431
88	0x3e2224ef	0.15834402
89	0xbc800248	-0.015626088
90	0x3dbf2930	0.09334028
91	0xbc3754b4	-0.011189628
92	0xbcdeb4de	-0.027185854
93	0xbdda5b1b	-0.10661908
94	0xbe4a2e60	-0.19744253
95	0xbd23f12b	-0.040024918
96	0x3d5d5951	0.054040257
97	0xbd3d5e5e	-0.046232574
98	0xbe92f8bb	-0.2870539
99	0x3e406621	0.18788959
100	0x3e585d2c	0.21129292
101	0x3db9a011	0.09063733
102	0x3cd65c76	0.026167136
103	0xbe769949	-0.24081911
104	0x3db52bd1	0.08846248
105	0xbda955bb	-0.08268305
106	0xbde002b3	-0.10938015
107	0x3d0fa2bb	0.0350673
108	0xbd3629d4	-0.044473484
109	0x3d58b387	0.052905586
110	0x3d3fa9cf	0.0467928
111	0xbf07c423	-0.53033656
112	0xbe181ee4	-0.14855534
113	0xbd0ec6a4	-0.034857407
114	0xbece20ae	-0.40259308
115	0x3d981867	0.074265294
116	0xbe08febc	-0.13378423
117	0xbe580c44	-0.21098429
118	0x3e8e8061	0.2783232
119	0xbd227514	-0.039662436
120	0x3e0d9095	0.13824685
121	0xbe0c19d0	-0.13681722
122	0xbe2ba74d	-0.16763039
123	0x3d246888	0.04013875
124	0x3dc26758	0.094923675
125	0xbe17dfb3	-0.14831428
126	0x3dfbb221	0.12289835
127	0x3c914731	0.017734142
128	0x3e3601a6	0.17774066
129	0x3e48da33	0.19614486
130	0xbc4fe985	-0.012689953
131	0xbe9bed16	-0.3045432
132	0xbde18719	-0.11012096
133	0xbdda6821	-0.10664392
134	0x3d5a4bba	0.053294875
135	0xbdbee798	-0.09321517
136	0xbd80cda5	-0.062892236
137	0x3b4d2ee3	0.0031308464
138	0xbe8b29d6	-0.27180356
139	0x3e64cf60	0.22344732
140	0x3e0a1613	0.13484983
141	0x3d9d34b3	0.07676067
142	0x3d1881a9	0.03723303
143	0x3c84f027	0.016227795
144	0xbdb32ec7	-0.087491564
145	0xbdc9625f	-0.09833216
146	0xbd2087af	-0.039191898
147	0xbda89961	-0.0823238
148	0x3ea47e7e	0.32127756
149	0xbe106613	-0.14101438
150	0xbd420261	-0.04736555
151	0xbe8c35b9	-0.27384737
152	0x3e480984	0.1953488
153	0x3c126297	0.008934638
154	0xbd67943b	-0.056537848
155	0xbdbc1086	-0.09182839
156	0x3e5f3193	0.21796255
157	0x3e03b84f	0.12863277
158	0x3dfe224c	0.12408885
159	0xbe581677	-0.2110232
160	0xbd31f3d9	-0.043445442
161	0xbe24b5bd	-0.16084953
162	0x3e16bfdf	0.1472163
163	0xbc72f5e8	-0.014829136
164	0x3dfb923a	0.1228375
165	0x3dd83a07	0.10557943
166	0xbc168a0a	-0.0091881845
167	0x3d424938	0.047433108
168	0xbd4b3c8d	-0.049618293
169	0x3d98aa2c	0.07454333
170	0xbe9495cb	-0.29020533
171	0xbe53a3c3	-0.20667939
172	0xbdd4f767	-0.10398751
173	0x3dbbfcf4	0.09179106
174	0xbe5f1b53	-0.21787767
175	0xbe731e10	-0.23741937
176	0x3cb7211e	0.022354659
177	0xbbd7c96a	-0.0065852897
178	0x3e092305	0.13392265
179	0xbe97ab5b	-0.2962292
180	0xbea5597c	-0.32294834
181	0xbdd51d42	-0.10405971
182	0x3e0711a6	0.13190326
183	0xbe437e46	-0.19091138
184	0xbd52ec6d	-0.051495004
185	0xbe8ca69b	-0.2747086
186	0x3d4f179f	0.050559636
187	0xbc6d4122	-0.014480861
188	0xbe3f7822	-0.18698171
189	0xbdb77c27	-0.08959227
190	0xbd5ff328	-0.05467525
191	0xbe136042	-0.14392188
192	0xbd5aaca2	-0.05338729
193	0x3cfff630	0.031245321
194	0xbe1050dc	-0.14093345
195	0xbe3cacfe	-0.18425366
196	0x3df4f77f	0.11961269
197	0x3da95f5b	0.08270141
198	0x3d9f2cd8	0.07772225
199	0x3d57162c	0.05251138
200	0xbe58f055	-0.2118543
201	0x3e59f34c	0.21284217
202	0x3e1c4ca1	0.15263607
203	0x3b631a8b	0.0034653272
204	0x3e925c75	0.28586164
205	0xbe632e69	-0.22185673
206	0xbc30ed8f	-0.010798826
207	0x3dc48188	0.095950186
208	0x3d82061e	0.06348823
209	0xbcf8fdf2	-0.030394528
210	0x3d9035ba	0.070414975
211	0xbe1014ff	-0.1407051
212	0xbdba590f	-0.09099018
213	0x3da0662f	0.0783199
214	0xbe0ce758	-0.13760126
215	0x3d292645	0.041296262
216	0xbd16ddcf	-0.036832627
217	0x3da90832	0.08253516
218	0xbd8647e7	-0.06556683
219	0xbd162af6	-0.036662064
220	0xbdf132ca	-0.11777265
221	0xbdd56fff	-0.10421752
222	0x3d63e854	0.055641487
223	0x3c974ff1	0.018470736
224	0x3dcd776f	0.10032546
225	0xbcff9ca8	-0.03120263
226	0x3e1879d0	0.14890218
227	0xbd5a85de	-0.053350322
228	0x3d370203	0.044679653
229	0xbd927b43	-0.071524166
230	0xbd643dbe	-0.055722944
231	0xbd9648fa	-0.07338138
232	0xbe6c8f7c	-0.2310161
233	0xba8b4883	-0.0010626469
234	0x3dc723db	0.09723636
235	0x3e2c8c61	0.16850425
236	0xbe73a273	-0.23792438
237	0x3e3eacbd	0.18620582
238	0xbe2bdcac	-0.16783398
239	0x3e04f879	0.1298541
240	0x3ab0aa7c	0.0013478543
241	0xbd1c0ed4	-0.03810008
242	0x3d74b148	0.05973938
243	0xbdc7c782	-0.0975485
244	0xbe101fa1	-0.14074565
245	0x3dbd6193	0.092471264
246	0x3d495cec	0.049160883
247	0xbdbc7fe3	-0.0920408
248	0xbe9c98a7	-0.30585214
249	0x3dcb88b4	0.099381834
250	0x3d30a8b6	0.043129645
251	0xbe069f04	-0.13146597
252	0xbe0b1686	-0.13582811
253	0xbdda6654	-0.10664049
254	0xbe040a8c	-0.12894648
255	0xbd25f97f	-0.04052114

sequential_1/dense_3/MatMul f4 [3, 32]
0	0xbf1b945a	-0.6077324
1	0xbe4ca075	-0.19983084
2	0xbcdaa1b9	-0.026688443
3	0xbd9764d4	-0.07392278
4	0x3e753602	0.23946384
5	0x3dd193f4	0.10233298
6	0xbe31af43	-0.17352013
7	0xbd88be27	-0.06676894
8	0x3ce9474d	0.028476382
9	0xbdaeb815	-0.085312046
10	0xbe64b3d9	-0.22334231
11	0xbf006656	-0.5015615
12	0x3ce98bd4	0.028509058
13	0xbdf38e7f	-0.11892413
14	0x3ebb1482	0.36539084
15	0xbecbf2ea	-0.39833766
16	0xbf7c7884	-0.9862139
17	0xbe1cc623	-0.15309958
18	0x3bbb7f0b	0.005721932
19	0x3e25740b	0.16157548
20	0xbe6be4a7	-0.23036443
21	0xbe273d50	-0.16331983
22	0xbe8ff687	-0.28117773
23	0x3ecd2162	0.40064532
24	0x3d8620f0	0.06549251
25	0x3e609a36	0.21933827
26	0x3eb8f064	0.36120903
27	0x3e7cbb09	0.24680723
28	0xbf5084af	-0.8145246
29	0xbd35ffcd	-0.044433404
30	0xbd6c6b5b	-0.05771957
31	0x3d3610e6	0.04444971
32	0xbecf2608	-0.40458703
33	0x3e3be3a4	0.18348557
34	0xbe8912cd	-0.26772156
35	0x3d9d552b	0.0768226
36	0x3d93cf16	0.07217233
37	0xbe334ba9	-0.17509331
38	0x3e1e73f9	0.15473928
39	0x3e660749	0.22463717
40	0x3d3c8424	0.046024457
41	0xbe996f48	-0.29967713
42	0xbe822115	-0.25415865
43	0xbde685d0	-0.112559915
44	0xbe8abdcc	-0.2709793
45	0x3e1f5b84	0.15562254
46	0xbcef514a	-0.029213566
47	0xbe85e888	-0.2615397
48	0xbddf8af8	-0.10915178
49	0x3d43a16e	0.047761373
50	0x3cd527db	0.026019981
51	0x3ea6767f	0.3251228
52	0x3e17ec6f	0.14836286
53	0x3d18b3af	0.037280735
54	0x3c98976f	0.018626897
55	0x3e961bee	0.29318184
56	0x3ea1b728	0.3158505
57	0x3de18df1	0.11013401
58	0x3e43d8d5	0.19125684
59	0xbeacc18c	-0.33741415
60	0xbdcd8003	-0.10034182
61	0x3e17dc45	0.1483012
62	0x3e3eeded	0.18645449
63	0x3e89785d	0.26849642
64	0x3eb8c23f	0.36085698
65	0xbda93d37	-0.08263629
66	0x3e08ac09	0.13346876
67	0xbe271c24	-0.16319329
68	0xbdb1b364	-0.08676794
69	0xbd0934f2	-0.03349776
70	0xbe4c97ad	-0.19979735
71	0xbc3293c9	-0.010899493
72	0x3ebb9601	0.3663788
73	0x3b20b47b	0.0024521637
74	0xbee1d9cb	-0.44111475
75	0xbe8a54c0	-0.27017784
76	0xbe8a228a	-0.26979476
77	0x3e4aa1ae	0.19788238
78	0xbeeaad89	-0.45835522
79	0xbea44881	-0.32086566
80	0x3e4f8a39	0.20267572
81	0x3ec29ddb	0.3801106
82	0xbe384ab7	-0.17997251
83	0x3e1e288f	0.1544516
84	0x3e4cd9b9	0.2000493
85	0x3c9df30e	0.019280937
86	0xbe4e8cfa	-0.20170966
87	0x3df6b0bf	0.120454304
88	0x3de7ea6f	0.113240115
89	0xbe1ad33a	-0.15119639
90	0x3d48ac55	0.048992474
91	0x3e9eeb77	0.3103902
92	0x3ec476ef	0.3837199
93	0xbded00e8	-0.115724385
94	0xbe28ab77	-0.16471659
95	0x3e917b50	0.28414392

sequential_1/conv2d_1/Conv2D f4 [30, 5, 5, 1]
0	0x3d8bbfe4	0.068237096
1	0x3d6d3e9e	0.057921045
2	0x3ca0be00	0.019621849
3	0xbdc4f65b	-0.09617301
4	0xbb7352e8	-0.0037128273
5	0x3e12b1db	0.14325659
6	0x3d762db8	0.060102195
7	0xbd88faf6	-0.06688492
8	0xbdc9dcef	-0.09856593
9	0xbe5e0ddb	-0.21684973
10	0x3dcddcfd	0.10051916
11	0x3ccdf1ad	0.025139654
12	0xbd9783bc	-0.07398173
13	0xbdfd6f84	-0.123747855
14	0x3d372f06	0.04472258
15	0xbe0ecbdc	-0.13944954
16	0x3c911e1e	0.017714556
17	0x3ce8f577	0.02843736
18	0xbdc521cc	-0.09625587
19	0x3d67eb17	0.056620684
20	0x3aa04406	0.0012227304
21	0xbd918ca3	-0.071069025
22	0x3cc3230b	0.02382042
23	0x3d35c817	0.044380274
24	0x3c916f89	0.01775338
25	0x3c9a5188	0.018837705
26	0xbe699f2c	-0.22814626
27	0x3cd35921	0.025799336
28	0xbd428099	-0.04748592
29	0x3d3fefd5	0.04685958
30	0xbd7105ab	-0.058843296
31	0xbc8cad97	-0.017172618
32	0x3e2c762a	0.16841951
33	0xbe9a1330	-0.30092764
34	0x3e08fb1d	0.13377042
35	0x3cb09b80	0.021558523
36	0x3b96b18e	0.004598803
37	0x3de05027	0.10952788
38	0xbe4302b3	-0.19043998
39	0xbdd08291	-0.101811536
40	0xbd0b55cb	-0.034017365
41	0x3e0fc4c5	0.14039905
42	0xbe142a9e	-0.14469382
43	0xbd4e3666	-0.050344847
44	0x3ccd93a9	0.025094824
45	0xbd44935b	-0.04799209
46	0x3da41bac	0.080130905
47	0xbdd7e4e1	-0.10541702
48	0xbc7ede99	-0.015556001
49	0x3d8ecbd6	0.06972472
50	0x3c862e7c	0.016379587
51	0xbd306a51	-0.04307014
52	0x3daacb0f	0.083395116
53	0x3cf296ee	0.029612985
54	0xbe3e52b7	-0.1858624
55	0x3bac8b22	0.0052656094
56	0x3c87a43a	0.016557802
57	0xbd005a19	-0.031335924
58	0xbd8dc267	-0.06921845
59	0xbcc0cb75	-0.023534516
60	0xbdc77969	-0.09739954
61	0xbde4e4a0	-0.11176419
62	0x3d3b395c	0.045709
63	0x3d5be4e3	0.05368508
64	0xbd57914c	-0.0526288
65	0x3c903a4f	0.017605929
66	0x3d02c593	0.031926703
67	0x3d8f8670	0.07008064
68	0x3d9d2142	0.07672359
69	0x3cb64ee8	0.022254422
70	0xbe73c84d	-0.23806877
71	0xbde4cb22	-0.11171557
72	0x3e3d751d	0.18501706
73	0xbe24664f	-0.16054653
74	0xbd3197d0	-0.04335767
75	0xbce5d08f	-0.02805355
76	0x3c382717	0.0112397885
77	0xbba52372	-0.005039626
78	0xbc73039a	-0.014832402
79	0xbe08686d	-0.13321085
80	0xbdb37be5	-0.087638654
81	0x3db6a839	0.08918805
82	0x3dea27d1	0.114333756
83	0xbe0104cc	-0.12599486
84	0xbe00e813	-0.1258853
85	0xbd475a10	-0.048669875
86	0x3db859d7	0.090015106
87	0x3e207883	0.15670972
88	0xbe0874da	-0.13325825
89	0xbdc594e9	-0.09647543
90	0xbcc1095b	-0.023564031
91	0x3df99e60	0.12188411
92	0x3d8e47fd	0.069473244
93	0xbaec4424	-0.0018025679
94	0xbdf5cc4f	-0.120018594
95	0xbd6dd11e	-0.058060758
96	0xbc88d859	-0.016704725
97	0xbb56e106	-0.0032787933
98	0x3dbe06cd	0.09278641
99	0xbd49e4d5	-0.049290497
100	0x3e24887f	0.16067694
101	0xbe4d13c4	-0.20027071
102	0xbdeead3e	-0.11654137
103	0xbc729848	-0.0148068145
104	0x3d1f4e53	0.038893055
105	0xbdeb6450	-0.114937425
106	0xbd6a7701	-0.057242397
107	0xbdc43676	-0.095807
108	0xbdaf9425	-0.08573178
109	0x3d16a739	0.03678057
110	0x3b0abcb2	0.00211696
111	0x3e2d3b6e	0.16917202
112	0xbe444d4c	-0.19170111
113	0x3dc2f119	0.09518642
114	0xbcec2a59	-0.028828787
115	0x3df56d1d	0.11983702
116	0xbdaec7d1	-0.08534206
117	0xbe03cc97	-0.12871014
118	0xbde570c1	-0.11203147
119	0x3d343e25	0.04400458
120	0xbd156361	-0.03647173
121	0x3ce8b759	0.02840774
122	0x3cf2a2fc	0.029618733
123	0x3ca7d95a	0.020489383
124	0x3d58541d	0.05281459
125	0xbc7a669b	-0.015283252
126	0xbcdb01b6	-0.026734214
127	0xbd5be3c1	-0.053684
128	0xbdf0c0f6	-0.117555544
129	0x3d6573b4	0.056018546
130	0xbc7a2459	-0.015267455
131	0x3d991213	0.074741505
132	0x3debc11d	0.11511443
133	0x3d69ee45	0.057111997
134	0xbe07fcbd	-0.13280006
135	0x3db7983f	0.089645855
136	0xbd8ffaf8	-0.0703029
137	0xbc320cb7	-0.010867289
138	0xbdcd5ba9	-0.100272484
139	0x3de97d5d	0.11400864
140	0xbb54c584	-0.0032466361
141	0xbe5d0f0a	-0.21587768
142	0x3e2f93a1	0.1714616
143	0xbdaaed92	-0.08346094
144	0xbe087e2f	-0.13329385
145	0x3d0e5184	0.034745708
146	0x3d7f8bbe	0.062389128
147	0xbc6e8a99	-0.014559411
148	0xbdf3737f	-0.118872635
149	0x3d3a13a1	0.045428876
150	0xbd9fae16	-0.07796876
151	0xbce9caf9	-0.028539168
152	0x3c08e9e5	0.008356546
153	0x3cbd11a3	0.023079699
154	0xbd41763a	-0.04723189
155	0xbc1aa66b	-0.009439091
156	0xbd79760f	-0.060903605
157	0x3c132cd7	0.008982859
158	0x3b8b6f07	0.004255179
159	0xbd612c20	-0.05497372
160	0x3d038b9f	0.032115575
161	0xbd7c2472	-0.061558194
162	0xbbcd56d0	-0.0062664524
163	0xbceee5e0	-0.029162347
164	0xbd80816f	-0.062746875
165	0xbd498f89	-0.04920915
166	0x3d017d74	0.031613782
167	0x3cb6a48e	0.022295263
168	0xbd429b06	-0.047511123
169	0xbdb81734	-0.08988801
170	0xbdf420cd	-0.11920319
171	0x3e12058d	0.1425993
172	0x3e24ad5e	0.1608176
173	0x3dcbc176	0.09949009
174	0xbdedae22	-0.11605479
175	0xbd83eb41	-0.064413555
176	0xbd506a8b	-0.050882857
177	0xbc522e63	-0.012828442
178	0x3d362e5a	0.044477798
179	0x3d5eaa62	0.05436171
180	0xbdd8d904	-0.105882674
181	0xbcbc326e	-0.022973265
182	0xbaa3d987	-0.0012500741
183	0x3d777e0b	0.06042294
184	0xbc250d50	-0.010073975
185	0xbcb0b899	-0.021572398
186	0x3ca1c03a	0.019744981
187	0x3c2d60e8	0.010582186
188	0x3cc5ba3f	0.02413666
189	0x3c93c15b	0.018036535
190	0xbe45af17	-0.19305073
191	0xbdce023e	-0.100590214
192	0x3d3f7a11	0.04674727
193	0x3db52897	0.088456325
194	0x3bd81544	0.006594332
195	0xbe398125	-0.18115671
196	0xbd06739d	-0.0328251
197	0x3da30bad	0.07961211
198	0x3e1db2ab	0.15400188
199	0x3e053d27	0.13011609
200	0xbd988668	-0.07447511
201	0x3e07d64c	0.13265342
202	0xbe6e1efc	-0.23254007
203	0xbd060895	-0.03272303
204	0x3d37dc72	0.044887967
205	0xbd784290	-0.060610354
206	0x3e3dd762	0.18539193
207	0xbe2af574	-0.16695195
208	0xbd8df544	-0.06931546
209	0x3d7f7282	0.062365063
210	0x3b412a31	0.002947461
211	0x3d55d590	0.052205622
212	0xbc86ae6c	-0.016440593
213	0xbdafd63a	-0.08585782
214	0xbcc4ed2a	-0.02403887
215	0x3b1838fd	0.0023227327
216	0x3d0ca453	0.0343364
217	0xbcf7124f	-0.030160097
218	0xbcafeb54	-0.021474518
219	0xbba4ed80	-0.005033195
220	0xbcd864b9	-0.026415216
221	0x3d9c3969	0.076281376
222	0xbd8f2042	-0.069885746
223	0xbceb1aef	-0.028699366
224	0x3d041efd	0.032256115
225	0x3d976644	0.073925525
226	0x3d87e22a	0.06634934
227	0xbddaffdd	-0.10693333
228	0xbd907a0b	-0.07054528
229	0x3da21f11	0.07916082
230	0xbd791e28	-0.060819775
231	0xbdc88495	-0.09790913
232	0xbe0d97f1	-0.13827492
233	0xbca9b708	-0.020717159
234	0xbe7b0ebf	-0.24517344
235	0x3d19d43f	0.03755593
236	0x3e14823c	0.14502805
237	0x3de3819a	0.11108704
238	0xbe843ec2	-0.2582913
239	0x3d753073	0.059860658
240	0xbd6db06f	-0.05802959
241	0xbcaf6119	-0.021408604
242	0x3d84b5c5	0.06479982
243	0xbe4c8908	-0.19974148
244	0x3d644186	0.05572655
245	0xbc7ae65e	-0.015313713
246	0x3c86813a	0.016419042
247	0x3d61aa1f	0.05509388
248	0x3cd3fe82	0.025878195
249	0x3cb09a8a	0.021558065
250	0x3d0971b9	0.03355572
251	0xbc8e388e	-0.017360952
252	0xbca3f632	-0.020014856
253	0x3dba0bed	0.09084306
254	0xbe1a4ca1	-0.15068294
255	0x3d745a2a	0.0596563
